output/gesture_model.tflite (tflite, 4588 bytes, 6 tensors)

arith.constant f4 [10]
-0.053108525 0.09302326 -0.048905242 -0.030782107 0.064886704 0.033536933 0.068731815 -0.037837107
0.06428352 0.09374877
00000000: 5388 59bd fb82 be3d dd50 48bd c22a fcbc
00000010: 52e3 843d 065e 093d 44c3 8c3d 15fb 1abd
00000020: 14a7 833d 5bff bf3d

arith.constant1 f4 [3]
0.07315284 0.026218202 -0.07334101
00000000: 28d1 953d 8ec7 d63c d033 96bd

arith.constant2 f4 [3, 10]
-0.24264663 0.7119834 -0.55873823 -0.5531052 -0.7227284 0.65953535 -0.27101114 -0.6643755
0.55721503 -0.65159917 -0.4551732 0.38605115 -0.54226136 0.28080776 0.7294548 -0.52710587
0.43379542 -0.5978552 0.5353005 0.5404236 -0.101523116 0.5156929 0.09949399 0.18352842
0.26281136 0.38992175 -0.1713537 -0.344525 -0.40157056 -0.3436796
00000000: 5c78 78be 8b44 363f 7809 0fbf 4d98 0dbf
00000010: ba04 39bf 4fd7 283f f9c1 8abe 8314 2abf
00000020: a5a5 0e3f 34cf 26bf 760c e9be 7fa8 c53e
00000030: a4d1 0abf 09c6 8f3e 8dbd 3a3f 69f0 06bf
00000040: 6f1a de3e 0a0d 19bf 7409 093f 3359 0a3f
00000050: 5aeb cfbd 7304 043f 81c3 cb3d e0ee 3b3e
00000060: 368f 863e d3a3 c73e 5877 2fbe 9565 b0be
00000070: a89a cdbe c6f6 afbe

arith.constant3 f4 [10, 20]
0.20246302 -0.37486073 -0.047104653 0.06904078 -0.049172603 0.33032537 0.3726568 0.14506555
-0.36744225 0.18334597 -0.037474625 -0.14452454 -0.16639341 0.052969716 -0.09442464 0.13425191
0.45652044 0.0134195825 0.3920745 0.32004842 0.38160497 -0.45892656 -0.014966132 -0.2601911
0.35425952 0.29163924 0.11662653 0.18576917 -0.13231885 -0.09637349 0.5153522 0.084718816
0.35502934 -0.17554002 -0.3360234 -0.41609737 0.3714275 0.38201734 0.4923819 0.12768497
-0.02050383 0.002914153 0.2007332 -0.3988296 -0.07192657 0.0326186 0.23172222 0.33867761
0.29621562 -0.21829511 0.2955373 0.21799356 -0.033186045 -0.36557963 -0.23911232 -0.24850531
0.15128611 -0.38617173 0.10345264 -0.35289988 -0.36768737 0.15152368 -0.080564946 0.06875988
-0.07147225 0.28951594 0.24958526 0.3800154 -0.12931855 -0.32250822 0.36504474 -0.4025935
-0.018134115 -0.38290474 0.124655455 -0.036155917 0.30339015 -0.3510761 0.27593365 -0.25501007
-0.1862017 0.21051754 0.4225532 0.04926591 0.10982734 0.11061247 0.46219674 -0.15257283
-0.086915635 0.2125509 0.06346927 0.3136225 0.22456291 0.13949582 -0.4035925 -0.07769797
-0.36596283 0.09572908 -0.17516775 -0.24354734 0.49872038 -0.42304417 -0.14614816 0.30268294
-0.02480262 0.4436041 -0.22982685 -0.3260239 0.49624822 0.031347927 0.22824861 0.049074784
0.25489548 0.30884966 -0.21091712 -0.033943817 0.24091701 -0.16587837 -0.016705874 0.024401806
-0.0863217 0.3484154 0.20797814 -0.0748212 -0.38256967 -0.052083198 0.15954873 0.15077792
-0.29906294 0.35954884 0.0020139883 0.11490945 0.3612328 0.47217563 -0.016613511 0.046613712
-0.18239492 0.024092294 0.2906799 -0.09297098 0.02160339 -0.1018435 -0.15346473 -0.32721925
0.40174353 -0.44665202 0.20613936 0.12537996 -0.11490055 -0.18247227 -0.19873886 0.13987257
-0.20676935 0.23914997 0.25808388 0.35569203 -0.3102122 0.09063861 -0.4451749 -0.4127927
0.13203366 0.46642756 -0.08444954 0.25237185 0.14906153 -0.52473515 0.18309397 0.3180692
0.0093420455 -0.021229591 -0.052900176 -0.33787516 0.5261403 -0.2635222 0.16426446 -0.019310001
-0.40074304 0.35613912 0.1420412 -0.25632098 0.16325517 0.51871276 -0.10500208 0.49872854
-0.31336975 0.44447702 -0.35732603 -0.18829146 -0.39515203 0.1885306 0.26977375 0.4354284
-0.3577775 0.18982995 0.01635113 -0.0912285 -0.17425486 0.009114787 -0.27001238 -0.13518545
00000000: 7752 4f3e bfed bfbe cff0 40bd 4165 8d3d
00000010: 3669 49bd 6820 a93e dfcc be3e 108c 143e
00000020: 6421 bcbe 0cbf 3b3e fe7e 19bd 3efe 13be
00000030: 0963 2abe c6f6 583d b561 c1bd 5579 093e
00000040: 0cbd e93e cfdd 5b3c fdbd c83e 63dd a33e
00000050: ba61 c33e 6cf8 eabe 8234 75bc c537 85be
00000060: 8161 b53e bd51 953e e4d9 ee3d 463a 3e3e
00000070: 987e 07be 775f c5bd 1fee 033f 0f81 ad3d
00000080: 68c6 b53e c3c0 33be 420b acbe b70a d5be
00000090: bf2b be3e c797 c33e 7b19 fc3e d9bf 023e
000000a0: a6f7 a7bc 60fb 3e3b 018d 4d3e 6533 ccbe
000000b0: 3d4e 93bd 159b 053d 9748 6d3e 2767 ad3e
000000c0: 93a9 973e c188 5fbe aa50 973e b439 5f3e
000000d0: 17ee 07bd 412d bbbe dcd9 74be 2d78 7ebe
000000e0: bfea 1a3e 4db8 c5be fade d33d 4baf b4be
000000f0: 8541 bcbe 0629 1b3e 3cff a4bd fbd1 8c3d
00000100: 0b60 92bd 6f3b 943e 4793 7f3e 6191 c23e
00000110: 156c 04be cc1f a5be 25e7 ba3e bc20 cebe
00000120: ff8d 94bc 170c c4be 5c4b ff3d 3a18 14bd
00000130: f455 9b3e 3fc0 b3be 2d47 8d3e ae90 82be
00000140: a9ab 3ebe e991 573e e558 d83e 0dcb 493d
00000150: 28ed e03d ca88 e23d 0da5 ec3e 0d3c 1cbe
00000160: d300 b2bd f1a6 593e 2dfc 813d 2193 a03e
00000170: d2f3 653e fed7 0e3e ada3 cebe 1d20 9fbd
00000180: 7b5f bbbe 9c0d c43d 2d5f 33be 7964 79be
00000190: 4758 ff3e 3f99 d8be dda7 15be 42f9 9a3e
000001a0: dd2e cbbc 1420 e33e bb57 6bbe 9bec a6be
000001b0: 3f14 fe3e af66 003d 01ba 693e a402 493d
000001c0: a981 823e 8b21 9e3e a8fa 57be ac08 0bbd
000001d0: f3b2 763e 05dc 29be c2da 88bc 4ce6 c73c
000001e0: 6ec9 b0bd 8163 b23e 39f8 543e db3b 99bd
000001f0: 2ce0 c3be 3155 55bd be60 233e 8765 1a3e
00000200: c71e 99be c916 b83e 1efd 033b a555 eb3d
00000210: 81f3 b83e 01c1 f13e 0f19 88bc 05ee 3e3d
00000220: bcc5 3abe 345d c53c ffd3 943e 9267 bebd
00000230: 98f9 b03c 5393 d0bd dc25 1dbe 4889 a7be
00000240: 54b1 cd3e 93af e4be 3216 533e 9b63 003e
00000250: fb50 ebbd 03da 3abe 3382 4bbe c13a 0f3e
00000260: 58bb 53be bbe3 743e 9223 843e 441d b63e
00000270: 22d4 9ebe bca0 b93d f7ed e3be 9159 d3be
00000280: d533 073e 98cf ee3e e1f3 acbd e236 813e
00000290: 96a3 183e 0b55 06bf fc7c 3b3e f7d9 a23e
000002a0: 610f 193c aee9 adbc dbad 58bd f9fd acbe
000002b0: 21b1 063f 62ec 86be f134 283e 0230 9ebc
000002c0: 312e cdbe de57 b63e 4073 113e 813c 83be
000002d0: 5d2c 273e 5cca 043f 550b d7bd 5959 ff3e
000002e0: 0072 a0be 7e92 e33e 70f3 b6be 7acf 40be
000002f0: 5e51 cabe 2a0e 413e c91f 8a3e 79f0 de3e
00000300: 9d2e b7be c862 423e cef2 853c 02d6 babd
00000310: de6f 32be 3056 153c 103f 8abe 0e6e 0abe

sequential_1/dense_1/MatMul f4 [20, 18]
0.27004644 0.033917442 0.04466019 -0.33690795 0.2470407 0.040123627 0.19385973 0.054363377
0.25939333 -0.2867701 -0.26451075 -0.43951094 0.10170244 -0.25602326 0.3667441 -0.13279055
-0.2947614 0.17144738 -0.4557467 -0.007641818 0.22658916 0.35727647 -0.093597606 0.06299455
-0.11784136 -0.21711817 0.29800636 0.38945562 0.43962568 -0.19861735 0.20293267 0.3709776
-0.1785041 0.05298554 -0.25525466 -0.24522401 -0.2596921 0.0775186 -0.41325897 0.17539713
0.15840131 -0.25123197 0.09584953 0.44902396 -0.23316272 0.27017325 -0.12403526 -0.03859549
-0.39212385 0.23141709 -0.086052164 -0.28251463 -0.15244383 0.23358883 0.25100088 0.25704125
-0.23505908 0.13128331 -0.3286783 -0.39222142 -0.089780234 -0.24655557 0.4406115 0.05945439
-0.2575617 0.29272878 -0.27917856 -0.010790528 0.3068923 -0.3591568 -0.3618141 0.06871932
0.20135577 0.015349292 -0.13837916 0.26939738 0.28456235 0.10647133 -0.07807536 -0.14215574
0.24547054 -0.3454626 0.32808065 -0.39356703 -0.37108132 0.029656861 0.041161664 -0.28387523
-0.21893021 0.1748612 -0.1037456 -0.13348731 0.0064954595 -0.19057564 -0.07724741 0.05580989
-0.01732915 -0.30226806 -0.017341174 0.14841607 -0.08936374 -0.07863413 0.4550702 0.081363566
-0.04324701 -0.12713869 0.37277618 -0.2601639 0.022805415 -0.27548513 -0.118402764 0.018286772
-0.07588397 0.09195453 0.19035536 -0.24931175 0.16827948 0.12392312 0.16697244 -0.37310866
0.1858876 -0.12935445 -0.35479677 0.3018711 0.28894544 -0.19880562 0.05284306 0.11232541
0.19985656 -0.16191901 -0.29702806 0.24690515 -0.28309354 0.28231362 0.27319935 0.16805097
0.1313315 0.119244516 -0.03723751 -0.34697953 0.3143272 -0.3366012 -0.33074248 0.2717886
-0.06325338 -0.3585171 -0.26842457 -0.15179484 -0.08380824 -0.28886965 0.20554583 -0.18102778
0.074910805 -0.4651445 -0.35089785 0.12691 0.23763867 -0.15890814 0.34875917 0.15002279
-0.1829745 -0.17474104 -0.09096096 0.24553676 0.10945895 -0.10804484 0.14548564 0.26886544
0.3354543 -0.1592786 -0.19785546 0.20114455 0.054141082 0.455128 0.17833284 0.24357855
0.00068863307 0.2702466 -0.2374731 0.14443639 -0.26660806 0.012575308 0.35600016 -0.388399
0.036339976 0.31917465 -0.22686766 -0.36212617 0.22758639 -0.33502328 0.2735198 -0.24443537
-0.26277837 -0.006519587 0.42862007 -0.20268103 -0.13369729 0.25041407 0.038070768 0.28498185
-0.45903355 0.44784355 -0.08259359 -0.2976375 0.18050289 0.27062824 0.34550625 -0.0879656
0.25050464 -0.123544015 -0.29854885 -0.22277407 -0.42614588 0.21165371 -0.09504841 -0.051008817
0.36092353 -0.22918826 0.39277264 0.27353615 -0.045956854 0.17118216 -0.3221769 -0.19686446
-0.24831861 0.23341364 -0.19052704 -0.40036255 -0.30620968 0.2560257 -0.08313331 -0.12416707
-0.28330448 0.32272616 -0.19753921 0.001220313 -0.32880914 -0.15823857 0.03323508 0.2858067
-0.0181742 0.22330952 -0.101022266 0.05022726 -0.22827083 0.048333853 0.12541588 0.12555309
-0.33350852 0.2409385 -0.25165358 -0.119942464 -0.21610934 0.26272345 0.189758 -0.18992826
00000000: 8743 8a3e 04ed 0a3d 9aed 363d 337f acbe
00000010: 3df8 7c3e ac58 243d 2a83 463e 22ac 5e3d
00000020: 34cf 843e 88d3 92be f46d 87be 9407 e1be
00000030: 5e49 d03d 7b15 83be e2c5 bb3e 3ffa 07be
00000040: f7ea 96be e78f 2f3e a257 e9be 3768 fabb
00000050: fd06 683e f1ec b63e 1ab0 bfbd 4903 813d
00000060: d056 f1bd 3a54 5ebe 4a94 983e ba66 c73e
00000070: 9e16 e13e 5962 4bbe 95cd 4f3e c7f0 bd3e
00000080: c7c9 36be 5e07 593d bdb0 82be 011c 7bbe
00000090: 5df6 84be 12c2 9e3d ae96 d3be 4e9b 333e
000000a0: f433 223e 7aa1 80be c24c c43d 78e6 e53e
000000b0: 35c2 6ebe 2654 8a3e 3306 febd 4e16 1ebd
000000c0: 75c4 c8be 9af8 6c3e 1e3c b0bd c2a5 90be
000000d0: 3c1a 1cbe e931 6f3e 3083 803e e99a 833e
000000e0: 54b3 70be 226f 063e 8648 a8be 3fd1 c8be
000000f0: b3de b7bd 1079 7cbe d597 e13e 7286 733d
00000100: 21df 83be 8ce0 953e 7ef0 8ebe c1ca 30bc
00000110: fd20 9d3e 66e3 b7be b33f b9be b7bc 8c3d
00000120: 3530 4e3e 997b 7b3c 44b3 0dbe 74ee 893e
00000130: 28b2 913e a40d da3d f9e5 9fbd 4691 11be
00000140: a15c 7b3e 79e0 b0be 30fa a73e 9e81 c9be
00000150: 5ffe bdbe f2f2 f23c 2299 283d 1858 91be
00000160: 3e2f 60be d00e 333e 9378 d4bd e6b0 08be
00000170: ddd7 d43b 4326 43be e433 9ebd e998 643d
00000180: ddf5 8dbc e1c2 9abe 140f 8ebc 62fa 173e
00000190: 5604 b7bd ee0a a1bd f6fe e83e f1a1 a63d
000001a0: c723 31bd a530 02be 85dc be3e 3434 85be
000001b0: 6cd2 ba3c 630c 8dbe 267d f2bd 24ce 953c
000001c0: 0e69 9bbd a852 bc3d 84ec 423e 944b 7fbe
000001d0: 7551 2c3e 68cb fd3d d3fa 2a3e 1908 bfbe
000001e0: 5259 3e3e 7e75 04be eca7 b5be d98e 9a3e
000001f0: a8f0 933e b393 4bbe f771 583d dd0a e63d
00000200: 33a7 4c3e 19ce 25be 1014 98be b4d4 7c3e
00000210: a3f1 90be 698b 903e c9e0 8b3e 8e15 2c3e
00000220: c47b 063e 7836 f43d 5c86 18bd 4da7 b1be
00000230: 7fef a03e fe56 acbe 1457 a9be e027 8b3e
00000240: fd8a 81bd 8e8f b7be f26e 89be 1b70 1bbe
00000250: a8a3 abbd b9e6 93be 9b7a 523e 595f 39be
00000260: d66a 993d 6b27 eebe e2a8 b3be b2f4 013e
00000270: 8d57 733e d1b8 22be 9090 b23e 939f 193e
00000280: ab5d 3bbe 51ef 32be bd49 babd fd6d 7b3e
00000290: 042c e03d 9d46 ddbd 30fa 143e bba8 893e
000002a0: aac0 ab3e ee19 23be 9f9a 4abe d6f8 4d3e
000002b0: 0ac3 5d3d 8a06 e93e e29c 363e a86c 793e
000002c0: 6285 343a c35d 8a3e 262c 73be 22e7 133e
000002d0: da80 88be aa08 4e3c a745 b63e 3cdc c6be
000002e0: 3ad9 143d dc6a a33e ff4f 68be 9a68 b9be
000002f0: 680c 693e 2c88 abbe ca0a 8c3e 444d 7abe
00000300: e38a 86be 42a2 d5bb 1774 db3e 9e8b 4fbe
00000310: f1e7 08be 4636 803e 18f0 1b3d 24e9 913e
00000320: 7206 ebbe c04b e53e d426 a9bd f163 98be
00000330: c0d5 383e c98f 8a3e 32e6 b03e 4f27 b4bd
00000340: 2542 803e a504 fdbd 65db 98be e31e 64be
00000350: cb2f dabe c0bb 583e bea8 c2bd 9fee 50bd
00000360: f8ca b83e 54b0 6abe 7f19 c93e ee0c 8c3e
00000370: 413d 3cbd 604a 2f3e 5ff4 a4be d696 49be
00000380: 3c47 7ebe fc03 6f3e 8519 43be 52fc ccbe
00000390: 84c7 9cbe cd15 833e cc41 aabd 4e4b febd
000003a0: 490d 91be 5d3c a53e b847 4abe e9f2 9f3a
000003b0: ac59 a8be 4b09 22be 8221 083d 4155 923e
000003c0: 0fe2 94bc 40ab 643e c3e4 cebd 19bb 4d3d
000003d0: d4bf 69be b8f9 453d 056d 003e fd90 003e
000003e0: a1c1 aabe 95b8 763e bdd8 80be 65a4 f5bd
000003f0: c44b 5dbe b083 863e ec4f 423e 8e7c 42be

sequential_1/dense_1/Relu;sequential_1/dense_1/BiasAdd f4 [20]
0.063297845 0.08196956 0.068682134 0.06448124 -0.06307313 0.06306804 -0.0016803562 -0.016058706
0.0678587 0.099444486 0.03882904 0.07394436 0.08604335 0.034578208 -0.05696501 -0.05662505
0.0070299874 0.027012862 -0.009984028 -0.060940947
00000000: 4da2 813d a8df a73d 38a9 8c3d be0e 843d
00000010: 7c2c 81bd d129 813d 663f dcba 8c8d 83bc
00000020: 81f9 8a3d 8da9 cb3d 330b 1f3d 2470 973d
00000030: 7f37 b03d e1a1 0d3d 2454 69bd abef 67bd
00000040: cf5b e63b 144a dd3c 0c94 23bc 379d 79bd
